Homework 1/model.pth (torch, 89871 bytes, 8 tensors)

conv1.weight f4 [10, 1, 5, 5]
0	0x3e899a84	0.268757
1	0x3e861695	0.26189104
2	0x3edb7856	0.42865247
3	0x3eb95281	0.36195758
4	0xbd89e302	-0.067327514
5	0xbda4c929	-0.08046181
6	0x3d94afb6	0.07260077
7	0x3ef590a4	0.47961915
8	0x3ea94044	0.33056843
9	0x3ead2ef2	0.3382488
10	0xbd3a71bb	-0.045518618
11	0x3e886c91	0.2664533
12	0x3dcd0baf	0.10011994
13	0x3eddef0a	0.43346435
14	0x3e6c2e5b	0.23064558
15	0xbe06fd4e	-0.13182566
16	0x3d94e3d2	0.07270016
17	0xbd82b789	-0.06382663
18	0x3e4aacab	0.1979243
19	0x3d966093	0.07342639
20	0xbdfae312	-0.122503415
21	0xbe86514b	-0.26233897
22	0xbdd5a198	-0.10431212
23	0x3e09fc95	0.13475259
24	0xbc88d518	-0.016703174
25	0x3ea19207	0.31556723
26	0x3e93fe62	0.28905016
27	0x3de628d6	0.112382576
28	0xbc7d03ab	-0.015442769
29	0x3e71a75f	0.23599003
30	0x3e0df65b	0.13863508
31	0xbcc57927	-0.024105622
32	0x3e877507	0.26456472
33	0x3e9000f7	0.28125736
34	0x3e9f4467	0.31106874
35	0xbdfa439d	-0.122199275
36	0x3836f676	4.3621716e-05
37	0x3dc1a33c	0.094549626
38	0x3e245645	0.16048534
39	0xbda3d239	-0.07999081
40	0xbe329896	-0.1744102
41	0x3e000acd	0.1250412
42	0x3d1a45d3	0.037664246
43	0x3e51f3fd	0.2050323
44	0x3d7aca8a	0.061228313
45	0x3ca1abd5	0.019735256
46	0x3d5d5bda	0.054042675
47	0x3e171c0c	0.14756793
48	0x3e38fa5c	0.18064255
49	0xbe25c818	-0.16189611
50	0x3e0b0cf0	0.13579154
51	0xbe0f906c	-0.14019936
52	0xbe2e247b	-0.17006104
53	0xbbd5b86c	-0.006522229
54	0xbd2eb7f5	-0.042655904
55	0x3e48f40d	0.19624348
56	0xbd968161	-0.07348896
57	0xbe2e18db	-0.17001669
58	0x3e320fdb	0.17388861
59	0x3b48f002	0.0030660634
60	0x3e68b7b9	0.22726335
61	0x3e392383	0.18079953
62	0xbd46f1ba	-0.048570372
63	0x3e38630b	0.18006532
64	0x3e2a628a	0.16639152
65	0xbcb2ec61	-0.02184123
66	0x3d7d9c43	0.0619166
67	0x3e8a5951	0.27021268
68	0x3e847494	0.25870192
69	0x3d8ed2a3	0.069737695
70	0x3cc356d6	0.023845118
71	0x3e9ef8ef	0.31049296
72	0x3dfb7e4d	0.12279949
73	0x3e8d4cdf	0.2759771
74	0x3e4b8ebf	0.19878672
75	0xbe2daafe	-0.1695976
76	0xbdc027d0	-0.09382594
77	0x3ee09fa9	0.4387181
78	0x3ea154b5	0.3150994
79	0x3e99e66a	0.30058604
80	0x3e0b0dac	0.13579434
81	0x3ea777dd	0.32708636
82	0x3f1bbb89	0.6083303
83	0x3f1fb9f7	0.62393135
84	0x3cdba568	0.02681227
85	0x3e49b53b	0.1969804
86	0x3ee9e877	0.4568517
87	0x3f169532	0.58821404
88	0x3efe5ed2	0.49681717
89	0xbc977d14	-0.01849226
90	0xbd034502	-0.032048233
91	0x3d70cb12	0.058787413
92	0x3e90522c	0.28187692
93	0x3ed88ad9	0.42293432
94	0xbd004293	-0.03131349
95	0x3d897faa	0.06713803
96	0xbd3fcc7b	-0.046825867
97	0xbd84e9e6	-0.06489925
98	0x3ceb7217	0.028740926
99	0x3dd908ed	0.105974056
100	0x3e84daca	0.25948173
101	0xbd298cca	-0.041394033
102	0x3e0deeab	0.13860576
103	0x3e88be5a	0.26707727
104	0x3e36f2f2	0.17866114
105	0x3e5b6062	0.21423486
106	0x3e848a6f	0.25886866
107	0x3e84bb7a	0.25924283
108	0x3e2dc0d4	0.1696809
109	0xbdc9035a	-0.098150924
110	0xbe0ce140	-0.13757801
111	0xbca71693	-0.020396506
112	0x3dde5112	0.10855307
113	0x3cc27c36	0.023740869
114	0x3e2888dd	0.16458459
115	0x3d8834b9	0.06650681
116	0x3cd20305	0.025636205
117	0x3e74a343	0.23890404
118	0x3e848abd	0.258871
119	0x3e8fca52	0.28084046
120	0x3df3dcfd	0.119073845
121	0xbd03b9dd	-0.032159675
122	0x3e9e005b	0.30859646
123	0x3dee5fd5	0.11639372
124	0x3dd8dc4c	0.10588893
125	0xbe75e247	-0.24012099
126	0xbe2a6502	-0.16640094
127	0xbdd9d480	-0.10636234
128	0x3ca0533c	0.01957094
129	0x3e944f29	0.28966644
130	0xbe0a789d	-0.13522573
131	0xbe2d2f38	-0.16912544
132	0x3e19ddd9	0.15026034
133	0x3e6ea981	0.23306848
134	0x3e91e292	0.28493172
135	0xbe10b13d	-0.14130111
136	0x3daf60ea	0.08563407
137	0x3dc2537f	0.09488582
138	0x3e36b1d5	0.17841275
139	0xbc0eddc9	-0.00871987
140	0xbd706a1f	-0.058694955
141	0x3d7c8bd3	0.061656784
142	0x3e90948e	0.28238338
143	0x3e73b1d4	0.23798305
144	0x3e2446d2	0.16042641
145	0x3e9a581a	0.3014534
146	0x3eadb46d	0.33926716
147	0x3e99dec0	0.30052757
148	0x3e0e4178	0.13892162
149	0xbdb753d7	-0.08951538
150	0x3e0d737d	0.13813587
151	0xbd93d626	-0.0721858
152	0xbd15d221	-0.036577348
153	0xbe40a673	-0.18813495
154	0xbd3204b8	-0.04346153
155	0xbe0cf30f	-0.13764594
156	0x3e24ca8b	0.16092889
157	0xbe49a4e5	-0.19691809
158	0xbe358971	-0.17728211
159	0x3b9a9d0d	0.004718429
160	0xbdd58320	-0.10425401
161	0x3da5cdcb	0.080958925
162	0xbd50ae51	-0.05094749
163	0xbd2f35de	-0.04277598
164	0x3dcd83bf	0.10034894
165	0x3e3fc657	0.18728004
166	0xbda29f93	-0.079405926
167	0x3e48e09f	0.19616936
168	0x3e85746c	0.26065385
169	0x3ea2682f	0.3172011
170	0xbd9e7c36	-0.07738535
171	0x3e0b352c	0.13594502
172	0xbd1f4195	-0.038880903
173	0x3e9031a3	0.2816287
174	0xbbaaddcf	-0.00521443
175	0x3e804986	0.25056094
176	0x3e38690e	0.18008825
177	0x3dde0a44	0.10841802
178	0x3d401713	0.046897005
179	0x3d97f382	0.07419492
180	0x3eb141cc	0.34620512
181	0x3ead0b24	0.33797562
182	0x3e83ca15	0.25740114
183	0xbdde3ac7	-0.10851055
184	0x3e4dbb62	0.20091012
185	0x3ee59d53	0.4484659
186	0x3ee9fcb7	0.4570062
187	0x3e9cb9ff	0.30610654
188	0xbdea1b57	-0.11430996
189	0xbd970694	-0.073743016
190	0x3ea0c4dc	0.31400192
191	0xbcc7fbb9	-0.024412023
192	0x3e825acc	0.25459898
193	0xbe195be5	-0.14976461
194	0xbe394a2d	-0.18094702
195	0x3e0c70a8	0.1371485
196	0xbdf7de36	-0.1210293
197	0xbd3273cd	-0.043567467
198	0x3e0f8fd7	0.14019714
199	0x3e24e66d	0.16103525
200	0x3e81b292	0.2533155
201	0x3d421e4e	0.047392182
202	0xbd033759	-0.032035206
203	0x3ea576f5	0.3231732
204	0x3d8b4c66	0.06801681
205	0xbd5c41d2	-0.05377371
206	0x3dc68b2c	0.09694514
207	0xbdb7c2f9	-0.08972735
208	0x3e2f2206	0.17102823
209	0x3e401291	0.18757083
210	0xbe45db14	-0.19321853
211	0xbe5d92f8	-0.21638095
212	0xbda1920f	-0.078891866
213	0x3c806b24	0.015676089
214	0xbc733c58	-0.01484593
215	0xbe308ffa	-0.17242423
216	0xbdccb122	-0.09994723
217	0xbe933a15	-0.2875525
218	0xbe6d451f	-0.23170899
219	0xbe40707d	-0.18792911
220	0x3dd06142	0.101748005
221	0x3dc72e95	0.09725682
222	0xbe059ddf	-0.13048504
223	0xbd613e6c	-0.05499117
224	0x3d2d1a85	0.04226162
225	0x3e5688eb	0.20950668
226	0x3e0db624	0.13839012
227	0x3ebc392b	0.36762366
228	0x3ec19b43	0.37813768
229	0x3e2e9231	0.17047955
230	0x3e456744	0.19277674
231	0x3eec7f95	0.46191087
232	0x3ef98cf8	0.48740363
233	0x3e65e8fe	0.2245216
234	0x3ee8968d	0.4542736
235	0x3de48d16	0.111597225
236	0xbdbbcb61	-0.09169651
237	0x3e335d25	0.17516
238	0xbb335bbc	-0.002736791
239	0x3eb3cc19	0.35116652
240	0xbe7271de	-0.2367625
241	0xbdc0cef5	-0.09414474
242	0xbd8eae83	-0.06966879
243	0x3c077946	0.00826866
244	0x3e70d631	0.23519208
245	0xbe998b02	-0.29988867
246	0xbe9a25ec	-0.30107057
247	0xbeb77173	-0.35828742
248	0xbe0c0afe	-0.13676068
249	0xbd9fa03b	-0.077942334

conv1.bias f4 [10]
0	0x3a27bb3d	0.0006398445
1	0x3963e139	0.00021732309
2	0x3c4dd0f1	0.012562023
3	0x3d429934	0.047509387
4	0x3d38f62c	0.045156643
5	0x3c1a059a	0.00940075
6	0xbce2a6e1	-0.027667465
7	0xbcf73838	-0.030178174
8	0x3e620d2b	0.22075336
9	0x3ac36ef4	0.0014910386

conv2.weight f4 [20, 10, 5, 5]
0	0x3d5a5490	0.0533033
1	0xbcd53bee	-0.026029553
2	0xbdefd378	-0.11710256
3	0x3af46b98	0.0018647788
4	0x3d08b6b2	0.033377357
5	0x3cd9e82d	0.026599968
6	0xbda3bce5	-0.07995013
7	0xbdbd8c3a	-0.09255262
8	0xbcc8a0dc	-0.024490766
9	0xbd2aace2	-0.04166878
10	0xbd8d8c84	-0.06911567
11	0xbd9ba741	-0.076002605
12	0xbd796b24	-0.060893193
13	0x3c2063bd	0.009789404
14	0xbc53032a	-0.012879172
15	0xbd406257	-0.046968784
16	0xbd3ed2f9	-0.046587918
17	0xbd2112c1	-0.039324526
18	0x3da8d3f0	0.08243549
19	0x3c59fd6a	0.0133050475
20	0x3d4d5af6	0.050135575
21	0xbb581b6f	-0.0032975336
22	0x3cbc434d	0.02298131
23	0xbcf4c91d	-0.029881055
24	0xbd0516e7	-0.032492545
25	0x3d91cd22	0.07119204
26	0xbdb09875	-0.08622829
27	0xbd94e216	-0.07269685
28	0x3c866a25	0.016408036
29	0x3d0715db	0.032979827
30	0x3d103044	0.03520228
31	0xbd23c700	-0.039984703
32	0xbd0d9228	-0.034563214
33	0xba97d0a8	-0.001158257
34	0xbcace303	-0.021104341
35	0x3c130e9c	0.008975651
36	0xbd5a0a23	-0.053232323
37	0xbd37af2e	-0.0448448
38	0x3ca69394	0.020334043
39	0xbd8e6c4e	-0.06954251
40	0xbcfe1e4f	-0.031020312
41	0x3ce94519	0.028475331
42	0x3d403969	0.04692975
43	0x3d7437fa	0.059623696
44	0xbd65fd5d	-0.05614983
45	0x3c5a16ce	0.013311101
46	0xbbe1ea24	-0.006894367
47	0xbcc2d11a	-0.023781348
48	0xbd211bf0	-0.039333284
49	0x3c47acd6	0.012187203
50	0x3c759f9a	0.014991665
51	0xbd60ccdc	-0.05488287
52	0xbd90010c	-0.0703145
53	0xbd73f461	-0.05955923
54	0x3d4e7d44	0.05041243
55	0xbd0b60d8	-0.034027904
56	0xbd31d975	-0.043420274
57	0xbd0a8a0d	-0.03382306
58	0xbc843633	-0.016139125
59	0xbd708a28	-0.058725506
60	0xbd6de634	-0.058080867
61	0x3d1f22c4	0.038851514
62	0x3d198dab	0.03748862
63	0xbb926e54	-0.0044687185
64	0xbd18e8fb	-0.037331562
65	0x3d336e95	0.04380663
66	0x3d7fd707	0.062460925
67	0x3da88c81	0.08229924
68	0x3c453641	0.012036861
69	0x3ca4b900	0.020107746
70	0x3bfff652	0.007811346
71	0xbd1e7490	-0.03868538
72	0xbdbb5388	-0.09146792
73	0x3c0ae8e9	0.008478382
74	0xbb881f0d	-0.004154092
75	0x3deecd34	0.11660233
76	0xbc3c9bcc	-0.011511754
77	0xbe2a36e9	-0.16622509
78	0xbd6876bb	-0.056753855
79	0x3d737eda	0.059447147
80	0x3d51f314	0.051257208
81	0xbe01c27f	-0.1267185
82	0xbd9def46	-0.077116534
83	0xbbb2c319	-0.0054553864
84	0x3c3c30c6	0.011486238
85	0xba8e8807	-0.001087428
86	0xbda2111b	-0.07913419
87	0xbd87347d	-0.06601808
88	0x3de930db	0.113862716
89	0x3d95ec8d	0.07320509
90	0xbcdf08d0	-0.027225882
91	0xbcdd6276	-0.027024489
92	0x3cc9a96a	0.024616916
93	0x3e155341	0.1458254
94	0xbc977790	-0.018489629
95	0xbce4a43f	-0.02791035
96	0x3d90b9f6	0.07066719
97	0x3dc05a02	0.09392168
98	0x3ce0db44	0.027448304
99	0xbd9c1b80	-0.07622433
100	0x3c1d2dcc	0.009593438
101	0xbc61c703	-0.013780358
102	0xbc790afe	-0.015200375
103	0xbcc3221c	-0.023819976
104	0xbd1d2101	-0.038361553
105	0x3d8f576e	0.06999098
106	0xbd1ef76b	-0.038810175
107	0x3c6933b1	0.014233516
108	0x3cd3e3e9	0.025865512
109	0x3d890d4d	0.0669199
110	0x3cde7ab4	0.027158119
111	0xbd57e1dc	-0.05270563
112	0x3d2fce0e	0.04292112
113	0x3c383bf1	0.01124476
114	0xbd69573c	-0.05696796
115	0xbca01baa	-0.019544441
116	0xbd829dba	-0.0637774
117	0xbc86842e	-0.01642045
118	0xbc9f5a67	-0.019452287
119	0x3d2fa086	0.042877696
120	0x3bb5c819	0.005547535
121	0xba7b364d	-0.00095829816
122	0x3d43ff38	0.047850817
123	0x3d005e4d	0.031339932
124	0xbd55955f	-0.052144405
125	0x3d7cffca	0.061767377
126	0xbba359ee	-0.0049850857
127	0xbdb51614	-0.08842102
128	0x3d8c0e1e	0.0683863
129	0xbc24fb61	-0.010069699
130	0xbcc274cb	-0.023737332
131	0xbdce5f8e	-0.10076819
132	0x3d1a62b3	0.037691783
133	0x3d825bbd	0.06365154
134	0x3dc3b926	0.09556799
135	0xbc3c3e55	-0.0114894705
136	0x3c472a82	0.012156131
137	0x3cb76711	0.022388013
138	0x3caa4169	0.020783143
139	0x3cb27f63	0.021789258
140	0xbc93c0f2	-0.01803634
141	0x3c2f8806	0.010713583
142	0x3ccbd180	0.02488017
143	0x3ca123a7	0.01967032
144	0xbd09eed0	-0.033675015
145	0x3c9070e9	0.017631965
146	0xbd1a4d73	-0.037671518
147	0x3cd3fa95	0.025876323
148	0xbd655882	-0.05599261
149	0x3bbf3ccd	0.0058361054
150	0x3d18eaa3	0.037333142
151	0xbd854648	-0.06507546
152	0x3d67d6b8	0.056601256
153	0xbd74b3c5	-0.059741754
154	0x3ccaa525	0.02473695
155	0xbc87efb0	-0.016593784
156	0x3c3873f4	0.011258114
157	0xbd10e5be	-0.03537535
158	0x3d5ac0d2	0.053406544
159	0xbd13ffb5	-0.036132533
160	0xbd9029f3	-0.07039251
161	0x3d05ff37	0.032714095
162	0x3d809d7e	0.06280039
163	0x3da0e8e7	0.078569226
164	0xbbc3da75	-0.00597697
165	0x3d7c0100	0.06152439
166	0x3d5e8b0e	0.05433183
167	0xbccbc6a5	-0.024874995
168	0xbd8846d3	-0.06654134
169	0x3d2fa253	0.042879414
170	0xbd0adc4d	-0.0339015
171	0x3c91e534	0.017809488
172	0xbda8d91d	-0.08244536
173	0x3d169b3e	0.036769144
174	0x3d21e183	0.039521705
175	0x3d1cde6c	0.038298056
176	0x3d993c82	0.07482244
177	0xbda4e1f0	-0.08050907
178	0xbda78521	-0.08179689
179	0x3a71b6e2	0.0009220672
180	0x3c90c39c	0.017671399
181	0x3c0207aa	0.007936398
182	0xbdaa6bce	-0.08321343
183	0x3c43b408	0.011944778
184	0x3d78cdef	0.06074327
185	0x3d9eaf32	0.077482596
186	0x3ca14530	0.019686311
187	0xbdf965f3	-0.121776484
188	0x3c96f20a	0.01842596
189	0x3d90a0b0	0.07061899
190	0xbd066e46	-0.03282001
191	0xbb0f1bf2	-0.0021836725
192	0xbcc19fac	-0.023635708
193	0x3d87f32a	0.06638177
194	0x3d7f5809	0.062339816
195	0x3dacbf6f	0.084349506
196	0xbcd471d3	-0.025933182
197	0xbccf356f	-0.025294034
198	0x3dae1005	0.08499149
199	0x3c05344a	0.008130142
200	0x3c8fa2b6	0.017533641
201	0x3b822368	0.003971506
202	0xbd2cdc29	-0.04220215
203	0x3cc6b887	0.024257911
204	0xbd8fc517	-0.07020014
205	0x3b065e54	0.0020503001
206	0x3ccf1e2a	0.025282938
207	0x3d22cdc6	0.039747022
208	0xbcfccf77	-0.030860646
209	0xbd2c81f5	-0.042116124
210	0x3c77f987	0.015135176
211	0xbd7257ae	-0.05916565
212	0xbd900c71	-0.07033623
213	0xbd83a32f	-0.06427609
214	0xbceebbef	-0.029142348
215	0xbcc8bf7d	-0.024505371
216	0xbd4adba9	-0.04952589
217	0xbd1e4976	-0.038644277
218	0xbd4ab757	-0.049491253
219	0x3d6c9652	0.057760544
220	0xbc9e3339	-0.019311534
221	0xbd118d09	-0.035534892
222	0x3d0138c8	0.03154829
223	0xbcc51d49	-0.024061816
224	0x3d897cdf	0.067132704
225	0x3d2cc5e0	0.042180896
226	0xbddec37b	-0.10877129
227	0xbdfa6093	-0.12225451
228	0xbdac8c09	-0.08425147
229	0xbd5c9049	-0.05384854
230	0x3c26a0aa	0.010170141
231	0xbdd97210	-0.10617459
232	0xbddd0b58	-0.10793179
233	0xbbec04bd	-0.0072027133
234	0xbd1cb6d2	-0.03826029
235	0xbd922558	-0.07136029
236	0xbdfd81cb	-0.12378272
237	0xbd04d169	-0.03242627
238	0xbcfed89a	-0.031109143
239	0xbc53c0b5	-0.012924363
240	0xbda772af	-0.08176171
241	0xbc763e90	-0.0150295645
242	0x3cbaec29	0.022817688
243	0x3d49a16f	0.04922622
244	0x3d576fa1	0.052596692
245	0xbca71f0d	-0.020400548
246	0xbd39e756	-0.045386635
247	0x3d980eb9	0.07424683
248	0x3cfa8e0e	0.030585315
249	0xbcfb5018	-0.03067784
250	0x3dd16667	0.1022461
251	0x3d5d72ab	0.054064434
252	0xbdc08e24	-0.09402111
253	0xbd64c840	-0.055855036
254	0xbc435016	-0.011920949
255	0x3c54f605	0.012998109

conv2.bias f4 [20]
0	0x3d8ed91f	0.06975006
1	0xbb051888	-0.0020308811
2	0xbbdc5ed5	-0.006725172
3	0xbd00b9a0	-0.031427026
4	0xbc3876ca	-0.01125879
5	0xbd2cf5b2	-0.0422265
6	0x3d368eab	0.044569653
7	0xbc80325e	-0.015649017
8	0x3d2844cc	0.041081235
9	0xbd8a6039	-0.06756634
10	0x3d587dc9	0.052854333
11	0xbd17cdf2	-0.03706164
12	0xbd2dd122	-0.042435773
13	0x3d50c8bf	0.050972696
14	0x3d071c64	0.03298606
15	0xbbd69e17	-0.0065496075
16	0xbd7ba637	-0.06143781
17	0x3a90e0a3	0.0011053275
18	0x3ce6989f	0.028148947
19	0xbd3c542b	-0.045978706

fc1.weight f4 [50, 320]
0	0xbd383cbc	-0.044979796
1	0x3c55442f	0.0130167445
2	0x3d09a5a1	0.03360522
3	0x3d982dac	0.07430586
4	0x3d3ae9b0	0.045633018
5	0xbce259ea	-0.027630765
6	0xbdb8aea7	-0.09017687
7	0x3c006929	0.007837572
8	0x3cef8fd0	0.02924338
9	0x3b45b05c	0.0030164933
10	0x3cad8d46	0.021185528
11	0x3cc9d827	0.024639202
12	0x3a0692f5	0.00051335926
13	0x3badc8f1	0.005303495
14	0x3ca8fd31	0.020628544
15	0xbc0d2975	-0.008615841
16	0xbd4b7425	-0.04967131
17	0x3dac40a9	0.084107704
18	0x3d9c6141	0.07635737
19	0x3c3e76f2	0.011625038
20	0x3d28c3fd	0.041202534
21	0x3daa404f	0.08313047
22	0x3d0c9411	0.034320895
23	0xbe01448d	-0.12623806
24	0x3d52c595	0.05145796
25	0xbceede9f	-0.029158888
26	0xbbb52fb4	-0.0055293683
27	0xbd8108ea	-0.06300528
28	0x3ce01f96	0.027358811
29	0xbd7da259	-0.061922405
30	0x3cd616a6	0.026133846
31	0xbd244803	-0.04010774
32	0xba5bf28c	-0.00083903293
33	0xbc312775	-0.01081263
34	0xbdc912fa	-0.098180726
35	0x3cb9cccd	0.022680664
36	0x3d7c1653	0.061544728
37	0xbd16bf62	-0.03680361
38	0xbb19e6f0	-0.0023483597
39	0x3d168aa5	0.036753315
40	0xbc88f03c	-0.016716115
41	0xbb4bb503	-0.0031083233
42	0x3d0f4af4	0.03498359
43	0xbbfb8839	-0.007676151
44	0xbcd2a0b6	-0.025711399
45	0xbc05237e	-0.008126138
46	0xbce964c3	-0.02849043
47	0xbb7179b8	-0.0036846232
48	0x3d07c13e	0.033143274
49	0x3c849b88	0.016187444
50	0xba307d3e	-0.000673253
51	0xbd028715	-0.031867106
52	0x3d716ac6	0.058939718
53	0x3c549a6f	0.012976273
54	0xbd5356db	-0.051596504
55	0xbd60706e	-0.05479472
56	0xbb91cb34	-0.0044492725
57	0xbcb70f56	-0.02234618
58	0x3cfba07b	0.030716171
59	0xbc723601	-0.014783383
60	0x3d212aae	0.039347343
61	0x3cf610db	0.030037334
62	0xbc83a32a	-0.016069014
63	0xb982042e	-0.00024798646
64	0x3d36aa56	0.04459604
65	0x3d063f5f	0.03277528
66	0xbd35c03f	-0.044372793
67	0x3c7a9974	0.015295375
68	0x3b7f7cb2	0.0038984236
69	0xbd077821	-0.03307355
70	0xbad75470	-0.0016428363
71	0x3db77949	0.0895868
72	0xbccb281d	-0.024799401
73	0xbc2ecd5e	-0.010669081
74	0x3d81bd69	0.06334955
75	0x3d9309f0	0.0717963
76	0xbd67ad3e	-0.0565617
77	0x3d047d2e	0.032345943
78	0x3d1ef8d4	0.03881152
79	0x3d3c4ca5	0.04597153
80	0xbd3e0076	-0.04638716
81	0xbd5ce962	-0.05393351
82	0xba236bce	-0.00062340207
83	0x3d63133c	0.055438265
84	0xbd31fc7a	-0.04345367
85	0x3ce30c84	0.027715929
86	0x3c62eb66	0.013850069
87	0x3dcd1106	0.100130126
88	0x3c2f193b	0.010687168
89	0x3d050897	0.032478895
90	0x3d420dcd	0.047376443
91	0xbd1de6f2	-0.038550325
92	0xbb3bc3d2	-0.0028650654
93	0xbdcfb9d4	-0.10142866
94	0xbd2da79e	-0.04239618
95	0xbd0fe7fe	-0.035133354
96	0x3ba2ce75	0.0049684593
97	0x3d06484f	0.032783803
98	0x3d3dfbb2	0.046382613
99	0xbcd116e3	-0.025523609
100	0xbc83c906	-0.016087066
101	0x3c1d2f1b	0.00959375
102	0xbbad9e45	-0.005298408
103	0x3d4c47bf	0.04987311
104	0x3c596a0b	0.0132699115
105	0x3caecb78	0.021337256
106	0x3d5c2286	0.05374386
107	0x3ca5094c	0.020146035
108	0xbd20426a	-0.039125837
109	0xbc0f1837	-0.008733801
110	0x3d42513c	0.047440752
111	0xbca28c85	-0.019842396
112	0xbd2b0601	-0.041753773
113	0xbc8f5317	-0.017495675
114	0x3d6a8a1b	0.057260614
115	0x3dc89a95	0.09795109
116	0xbd20a7ea	-0.039222635
117	0x3cbd1816	0.023082774
118	0x3dcd45c4	0.10023072
119	0x3d27b658	0.04094538
120	0xbce428d5	-0.027851501
121	0x3b3aa6c6	0.0028480752
122	0xbd5cec8b	-0.053936522
123	0xbc61a166	-0.013771391
124	0xbd06fb45	-0.032954473
125	0xba8dd246	-0.0010820113
126	0xbd058478	-0.032597035
127	0xbd217104	-0.03941442
128	0xb8ff9c97	-0.00012188515
129	0x3cd6e699	0.026233004
130	0x3b3ce004	0.0028820047
131	0xbc91aad9	-0.017781662
132	0xbb5d051e	-0.0033724974
133	0xbd2e511e	-0.042557828
134	0x3c137cff	0.009001969
135	0xbc147e30	-0.009063289
136	0xbbd28bc8	-0.0064253546
137	0x3d56bc17	0.05242547
138	0x3ce16e40	0.027518392
139	0xbc1109d2	-0.008852439
140	0x3be75e63	0.0070608123
141	0xbcc80796	-0.02441768
142	0x3d6c7ee6	0.057738207
143	0x3d6beb76	0.0575976
144	0xbd2d19e1	-0.04226101
145	0x3c4936a8	0.0122810975
146	0xbcab848c	-0.020937227
147	0x3cbdb90d	0.023159528
148	0xbcfd61af	-0.030930368
149	0x3d293688	0.04131177
150	0xbd0a66b6	-0.03378936
151	0xbc09b07c	-0.008403894
152	0x3d23bd39	0.03997538
153	0x3bd82695	0.006596396
154	0xbd693fbc	-0.056945547
155	0xbb03e371	-0.002012458
156	0xbdb5553b	-0.08854147
157	0x3b13f458	0.002257606
158	0x3ccca54a	0.02498116
159	0x3d1ced21	0.03831208
160	0x3ccf10b8	0.025276527
161	0xbafd7d1b	-0.0019339652
162	0x3d88ceff	0.06680106
163	0x3bc10c23	0.0058913394
164	0x3cb2847d	0.021791691
165	0xbb2d63c5	-0.0026457172
166	0x3c00fc37	0.007872633
167	0x3bbf91f6	0.0058462573
168	0x3d6e87e5	0.058235068
169	0xbcd1b5ec	-0.025599442
170	0xbd1f365b	-0.038870197
171	0xbd232719	-0.03983221
172	0xbd955090	-0.07290757
173	0xbc9bc918	-0.019016787
174	0xbd116ccf	-0.03550416
175	0x3b051d75	0.0020311747
176	0x3c34543b	0.01100641
177	0x3d30551d	0.04304992
178	0x3ca43399	0.020044135
179	0xbd5d8de7	-0.054090407
180	0x3d52c09b	0.051453214
181	0xbc218af2	-0.009859787
182	0xbd0a4313	-0.033755373
183	0xbccd95ee	-0.025095906
184	0xbdada23e	-0.08478211
185	0xbc932a2c	-0.017964445
186	0x3d38bdb0	0.045102775
187	0xbcf75188	-0.030190244
188	0x3d1799a9	0.037011776
189	0x3c82ab67	0.015950872
190	0x3c9a53db	0.018838814
191	0xbd387401	-0.045032505
192	0x3ce358e6	0.027752351
193	0x3d5f989a	0.05458889
194	0xbbfeed3d	-0.007779746
195	0x3caf2c61	0.021383466
196	0x3d32abbd	0.043620814
197	0xbd2b1179	-0.04176471
198	0xbd53690d	-0.051613856
199	0x3cb35d2c	0.021895014
200	0xbb1a44bc	-0.0023539504
201	0xbcd77702	-0.026301865
202	0xbd53fa77	-0.051752534
203	0xbd0d871c	-0.03455268
204	0x3c6d5943	0.014486614
205	0xbc288d4d	-0.010287595
206	0xbd46b400	-0.048511505
207	0xbbabec75	-0.0052466937
208	0xbc23e12d	-0.010002417
209	0xbcd08d99	-0.025458144
210	0x3d24a021	0.040191773
211	0x3d427ad2	0.04748041
212	0x3d52ce48	0.051466256
213	0xbc181962	-0.0092833955
214	0xbd1e61b7	-0.038667407
215	0xbd8b7040	-0.06808519
216	0x3d8de625	0.06928662
217	0xbd0e0ae0	-0.03467834
218	0xbc0a17bd	-0.008428511
219	0xbd3dc97a	-0.04633472
220	0xba18889b	-0.00058186956
221	0x3cea8fdf	0.028633056
222	0xbc6ae9d1	-0.014337973
223	0x3ca4db31	0.02012405
224	0x3d2bd49d	0.04195081
225	0x3d4443ed	0.04791634
226	0xbc09d1ed	-0.008411867
227	0xbcfac484	-0.030611284
228	0x3ce36bcc	0.027761362
229	0xbcb6546d	-0.022257054
230	0xbc2356b9	-0.009969407
231	0x3ba1927f	0.004930794
232	0x3c9cd2eb	0.019143542
233	0x3d0f6e2e	0.035017185
234	0xbd208da1	-0.039197568
235	0xbc835033	-0.016029453
236	0xbc404c95	-0.011737009
237	0x3c2f7379	0.010708683
238	0x3c250499	0.010071897
239	0xbca157fa	-0.01969527
240	0x3d7868c9	0.060646806
241	0x3cddbf8c	0.027068876
242	0xbca02e9f	-0.01955348
243	0x3d0ab670	0.033865392
244	0x3c9fde0e	0.019515064
245	0xbdba8bca	-0.09108694
246	0xbd9bd5c7	-0.07609134
247	0xbd827cec	-0.06371483
248	0xbcdc6a45	-0.026906142
249	0xbca096ca	-0.019603152
250	0xbd011f42	-0.03152395
251	0x3cdf5932	0.027264211
252	0x3b63818e	0.0034714672
253	0x3d5f4c0a	0.054515876
254	0x3c1b36c6	0.009473508
255	0x3d30b4da	0.043141223

fc1.bias f4 [50]
0	0xbb08b028	-0.002085695
1	0x3b1c623f	0.002386227
2	0x3d95d567	0.07316094
3	0x3cde764c	0.027156018
4	0xbcce1733	-0.025157547
5	0xbc39f437	-0.011349729
6	0x3d6af6c4	0.05736424
7	0x3b712a16	0.0036798767
8	0xbd1048e0	-0.03522575
9	0x3da603cf	0.08106195
10	0x3c35b78b	0.011091123
11	0x3a6d6920	0.00090564974
12	0x3da947df	0.082656614
13	0x3d6e5a4e	0.05819159
14	0xbcf6f037	-0.03014384
15	0xbcd1baa5	-0.025601694
16	0x3c2081d1	0.009796576
17	0xbd76410a	-0.06012062
18	0xbcc3324b	-0.023827692
19	0x3d844d34	0.06460038
20	0x3cc55cf4	0.024092175
21	0x3d7c53e9	0.06160346
22	0x3b91dade	0.00445114
23	0xbae45fbf	-0.0017423554
24	0xbc5a51b0	-0.01332514
25	0xbc0ac53f	-0.008469879
26	0x3d04ebbe	0.032451384
27	0x3b99db37	0.004695322
28	0xbc891c3f	-0.016737102
29	0x3caabe90	0.02084282
30	0xbc98bf48	-0.018645898
31	0xbd04549b	-0.03230725
32	0x3bd11a2a	0.006381293
33	0x3d18c220	0.037294507
34	0x3d1b9f5c	0.037993774
35	0x3d19b2ab	0.037523907
36	0x3d33c878	0.043892354
37	0x3d298405	0.04138567
38	0x3d8bbc90	0.06823075
39	0x3d92bda3	0.071650766
40	0x3d2c052b	0.041997116
41	0x3c85db6c	0.01633998
42	0xbd0127fc	-0.031532273
43	0xbcb0cc0e	-0.021581676
44	0xbadad5dd	-0.0016695816
45	0x3be6ed4b	0.0070473305
46	0xbd7c5c14	-0.06161125
47	0xbc33d415	-0.010975857
48	0xbd2d353a	-0.04228709
49	0x3d85005d	0.0649421

fc2.weight f4 [10, 50]
0	0x3e5f7423	0.21821646
1	0xbe5547df	-0.20828198
2	0xbdb92b4a	-0.0904146
3	0x3e391b61	0.1807685
4	0x3dea595d	0.11442826
5	0xbe825f52	-0.2546335
6	0x3e267918	0.16257131
7	0xbdd6d54b	-0.10489901
8	0xbca23d4c	-0.01980462
9	0xbdf0208a	-0.11724956
10	0xbe5800da	-0.21094075
11	0xbe172b5a	-0.14762631
12	0xbe79fb9a	-0.24412385
13	0x3e459d0c	0.1929819
14	0xbde22648	-0.11042458
15	0x3c1ca8db	0.009561743
16	0x3e3b1773	0.18270664
17	0xbdbd2561	-0.09235645
18	0xbe0569f1	-0.13028695
19	0xbd551470	-0.052021444
20	0x3dd89f33	0.1057724
21	0x3e77659f	0.24159859
22	0x3e098d44	0.13432795
23	0xbe6145b4	-0.21999246
24	0x3dc627f2	0.09675588
25	0x3debae34	0.11507836
26	0x3dc66154	0.096865326
27	0xbe769874	-0.24081594
28	0x3d9bf1e7	0.076144986
29	0xbd92163a	-0.07133146
30	0xbe8223dc	-0.25417984
31	0x3c5b89c4	0.013399545
32	0xbd732873	-0.059364747
33	0xbe081c9f	-0.13292168
34	0xbde30fd8	-0.11087006
35	0x3e2f7c02	0.17137149
36	0xbeac965f	-0.33708474
37	0x3e00cbc6	0.12577733
38	0xbdbd384a	-0.09239252
39	0xbe45fea2	-0.19335416
40	0xbd838fcc	-0.064239115
41	0xbd8d9520	-0.06913209
42	0x3e34a9ab	0.17642848
43	0x3e0c6bfa	0.13713065
44	0x3e47c71c	0.19509548
45	0x3d0ffcb6	0.035153113
46	0xbe0a5b1e	-0.13511321
47	0xbe5588b1	-0.20852925
48	0x3e86936c	0.2628435
49	0x3e3e7983	0.1860104
50	0x3da94323	0.082647584
51	0x3e53d28f	0.2068579
52	0x3e1fa946	0.15591916
53	0xbe5f5d48	-0.21812928
54	0xbe699d28	-0.22813857
55	0x3e4882c1	0.19581129
56	0xbd581a8f	-0.052759703
57	0xbce9840c	-0.028505348
58	0xbdacd8d1	-0.08439792
59	0x3e36c641	0.17849065
60	0x3e8a3df6	0.27000397
61	0x3cd076f4	0.025447346
62	0x3e3cd7be	0.18441674
63	0xbe04d449	-0.12971605
64	0xbe663878	-0.22482479
65	0x3e15630e	0.14588568
66	0xbe4fddbf	-0.20299433
67	0xbdd540fd	-0.10412786
68	0x3e5afa17	0.21384464
69	0xbe1aaadc	-0.1510424
70	0x3b9520a5	0.0045510107
71	0x3dc778a9	0.09739811
72	0xbe2a518e	-0.16632673
73	0xbd2435a6	-0.040090226
74	0xbe3661ee	-0.17810795
75	0xbe92c3f0	-0.28665113
76	0x3e15ac2f	0.14616464
77	0x3e718caf	0.23588823
78	0x3d9d262f	0.076732986
79	0x3e161e55	0.14660008
80	0x3db92bb3	0.09041538
81	0xbc75fea2	-0.0150143225
82	0x3e4a1b2c	0.19736928
83	0x3e403721	0.1877103
84	0x3e9e33fc	0.30899036
85	0xbdb08f00	-0.08621025
86	0xbdc0ef56	-0.0942065
87	0xbdbac618	-0.09119815
88	0xbe108f63	-0.14117198
89	0xbe64d9dc	-0.22348732
90	0xbe7c4cda	-0.24638692
91	0xbe16d943	-0.14731316
92	0x3e013e55	0.12621434
93	0xbe334602	-0.17507175
94	0xbe6fd22b	-0.23420016
95	0xbdca72d9	-0.09885187
96	0xbdc30468	-0.09522325
97	0x3d9b7203	0.075901054
98	0xbc36ee55	-0.011165221
99	0xbe79c57e	-0.24391744
100	0xbc8f40ae	-0.017486896
101	0xbe383951	-0.17990614
102	0xbd1137d3	-0.03545363
103	0x3b9b7c0f	0.0047450135
104	0xbe10a599	-0.1412567
105	0x3e2af94c	0.16696662
106	0x3e12170e	0.14266607
107	0xbe2e2aeb	-0.1700856
108	0xbddba72c	-0.10725245
109	0x3e388627	0.18019925
110	0xbe18feed	-0.14940996
111	0x3e0d019c	0.13770145
112	0x3e346e65	0.17620237
113	0xbe3c50e7	-0.18390237
114	0xbcf9c59a	-0.030489732
115	0x3d94a4b4	0.07257977
116	0x3e3d9e5a	0.18517438
117	0x3e534889	0.20633139
118	0x3bdba8d5	0.006703476
119	0xbe1dd37c	-0.15412706
120	0x3e7a24b8	0.2442807
121	0x3d9b4a89	0.07582576
122	0x3dee2d93	0.11629786
123	0x3df515d4	0.11967054
124	0x3ce379cc	0.027768038
125	0x3de9fda7	0.114253335
126	0xbe1d5950	-0.15366101
127	0x3d1be55a	0.038060524
128	0x3d694526	0.05695071
129	0xbb01ddee	-0.0019816118
130	0x3dc71e9d	0.09722636
131	0xbdd60bb7	-0.10451453
132	0x3e302097	0.17199932
133	0xbe76a989	-0.2408811
134	0xbd9b4286	-0.07581048
135	0x3e2e241f	0.17005967
136	0xbdfa23bc	-0.12213847
137	0x3a10d910	0.0005525509
138	0x3cb93f72	0.02261326
139	0xbdfe397a	-0.124133065
140	0x3daedf21	0.08538652
141	0x3d94caef	0.07265269
142	0x3e307a14	0.17234069
143	0x3e2df7da	0.16989079
144	0x3c065560	0.008199066
145	0xbded1f56	-0.115782425
146	0xbd877adb	-0.0661523
147	0x3e21f5c3	0.15816407
148	0xbe273a9f	-0.16330956
149	0x3dd6d0ff	0.104890816
150	0xbde6e04c	-0.1127325
151	0xbe709593	-0.23494558
152	0x3e223ba0	0.15843058
153	0xbe27283b	-0.1632394
154	0x3de73929	0.11290199
155	0x3e3e2ef1	0.18572594
156	0x3e19d7bc	0.15023702
157	0x3e56fdaa	0.20995203
158	0x3c5c939f	0.01346293
159	0xbe2be761	-0.16787483
160	0xbdfaf1da	-0.12253161
161	0x3dd56609	0.10419852
162	0x3e1e0772	0.15432528
163	0xbe2a9656	-0.16658911
164	0xbc14c0b4	-0.009079147
165	0x3d873d51	0.06603492
166	0x3e075983	0.1321774
167	0xbe0097d0	-0.12557912
168	0xbd84cd64	-0.06484488
169	0x3de23cad	0.11046729
170	0x3e6b384b	0.22970693
171	0xbe0efc84	-0.13963515
172	0xbd9a4370	-0.07532394
173	0x3e1560b6	0.14587674
174	0x3daa6a41	0.083210476
175	0xbdc377c3	-0.09544327
176	0x3e11f3e3	0.14253192
177	0xbe320a6b	-0.17386787
178	0xbe39e88e	-0.18155119
179	0x3dc99871	0.09843529
180	0xbe0ba1da	-0.1363596
181	0xbdb90894	-0.09034839
182	0x3e3a5075	0.18194754
183	0x3e1b4bc9	0.15165628
184	0xbe5ed12e	-0.21759483
185	0x3e1cfc38	0.15330589
186	0x3e24abbf	0.16081141
187	0xbe009ae4	-0.12559086
188	0xbdb5ecf0	-0.08883083
189	0xbdbcdc05	-0.09221653
190	0x3cc162da	0.023606706
191	0xbe0dc5e8	-0.13845026
192	0xbe0527b6	-0.1300343
193	0x3e180609	0.14846052
194	0x3e26eddc	0.16301674
195	0x3de9c0ae	0.11413704
196	0x3c96f0dc	0.018425398
197	0x3cefd144	0.02927459
198	0xbdaafb1a	-0.08348675
199	0xbc889f98	-0.016677663
200	0xbe01d40e	-0.12678549
201	0x3e39ae77	0.1813296
202	0x3e286ce8	0.16447794
203	0xbe4871fb	-0.1957473
204	0xbe60bca3	-0.21946959
205	0xbdcaf9f9	-0.0991096
206	0xbe35cc03	-0.17753606
207	0x3cf738c6	0.030178439
208	0x3eab6423	0.33474836
209	0x3e6d1399	0.23152007
210	0x3e01b8dc	0.12668175
211	0x3c187d57	0.009307227
212	0x3cb0e321	0.021592679
213	0xbc3ae064	-0.011406038
214	0x3e8e94ee	0.27848
215	0xbe0a7084	-0.13519484
216	0x3e57d317	0.21076618
217	0x3cf61a87	0.030041946
218	0xbe0212c2	-0.12702468
219	0x3e5d9120	0.21637392
220	0xbdaa86f1	-0.08326519
221	0xbd8680ab	-0.0656751
222	0x3ddf8468	0.10913926
223	0xbe233e8a	-0.15941826
224	0xbe9159fc	-0.28388965
225	0x3e119d2e	0.14220116
226	0xbdd125c2	-0.1021228
227	0xbd4b77a1	-0.049674634
228	0xbe622d21	-0.22087528
229	0x3e1f12e3	0.15534548
230	0xbe3354b9	-0.17512788
231	0x3e3e96e4	0.18612248
232	0xbd868f7f	-0.065703385
233	0xbd1d96b8	-0.038473815
234	0xbe0fdcdb	-0.14049093
235	0xbe7480d9	-0.23877276
236	0x3e3b3270	0.18280959
237	0xbe363f94	-0.1779769
238	0x3e648018	0.22314489
239	0x3e6d2080	0.23156929
240	0x3e0ff936	0.1405991
241	0x3ed6594b	0.41865
242	0xbe0f4731	-0.13992001
243	0xbe066518	-0.13124502
244	0xbe2d7e9a	-0.16942826
245	0xbcfa7059	-0.03057115
246	0xbdc77a8b	-0.0974017
247	0xbe185452	-0.14875916
248	0xbe0b4565	-0.1360069
249	0x3d7308b3	0.059334468
250	0x3e536224	0.20642906
251	0xbe01bfd1	-0.12670828
252	0x3e3ccb12	0.1843684
253	0xbda7713c	-0.081758946
254	0x3dfc84ac	0.12329993
255	0xbe134a95	-0.1438392

fc2.bias f4 [10]
0	0xbe68eaf4	-0.22745878
1	0x3e5883bf	0.21144007
2	0xbe56fe9f	-0.20995568
3	0xbdd61c74	-0.10454646
4	0x3c6dcb6c	0.014513832
5	0xbbf01a4d	-0.007327354
6	0xbdcb775a	-0.09934874
7	0xbce7570d	-0.028239751
8	0x3d813335	0.06308595
9	0x3e0319b4	0.12802774
